Notebook/model.pt (torch_old, 31950 bytes, 2 tensors)

_layer.weight f4 [10, 784]
0	0x3c4506f8	0.012025587
1	0xbb000530	-0.0019534342
2	0x3c84c8b8	0.016208991
3	0xbcefe288	-0.029282823
4	0xbcafac78	-0.021444544
5	0x3bb51168	0.0055257566
6	0xbcbf0608	-0.023318306
7	0xbc8deeec	-0.01732584
8	0xbcf584e1	-0.029970588
9	0x3b5f4d60	0.0034073219
10	0x3c0d17c4	0.008611623
11	0xbc9281c7	-0.017884148
12	0xbbbb30a4	-0.0057125855
13	0xbc5d464a	-0.013505528
14	0xbce6f928	-0.028194979
15	0x3ca6d9fe	0.020367619
16	0x3c7a4900	0.015276194
17	0x3d04e3cf	0.032443818
18	0x3ce0d5a6	0.027445626
19	0x3cc1c0c8	0.023651496
20	0x3d07877d	0.033088196
21	0x3cfecc02	0.031103138
22	0x3d087729	0.033316765
23	0x3cd96bb2	0.026540611
24	0xbc88dad3	-0.016705906
25	0xbc2b2f00	-0.010448217
26	0x3ba05c98	0.0048938505
27	0x3d0f79af	0.035028156
28	0x3b5312f0	0.0032207333
29	0xbc9f8dfa	-0.01947688
30	0xbcdedecc	-0.027205847
31	0x3c604e00	0.013690472
32	0x3d1190a1	0.03553832
33	0xbc90a323	-0.017655915
34	0xbc073ad8	-0.008253776
35	0xbccbf8a5	-0.024898836
36	0xbc8607bc	-0.01636111
37	0x3d016245	0.031587858
38	0xbc29873c	-0.010347184
39	0x3cd869cc	0.026417635
40	0x3ae7eee0	0.0017695092
41	0xbcf76f8e	-0.03020456
42	0x3c07cd88	0.008288749
43	0xbccc6010	-0.02494815
44	0xbc08ed1c	-0.0083573125
45	0xbc340720	-0.010988027
46	0x3ca0cd78	0.019629225
47	0xbd0ce7dd	-0.03440081
48	0xbc76c786	-0.0150622185
49	0xbc8d5107	-0.01725055
50	0x3b2be790	0.0026230551
51	0x3cb3455a	0.021883655
52	0x3b9bf7d0	0.004759766
53	0xbbe035e4	-0.0068423618
54	0x3bf7d800	0.007563591
55	0xbca749c0	-0.020420909
56	0x3c5bc888	0.01341451
57	0x3d09bc4b	0.033626836
58	0xbd0c1cab	-0.034207027
59	0xbc90bdd0	-0.017668635
60	0xbcf5fd91	-0.030028136
61	0x3c9f792e	0.019466963
62	0xbbe5a5c8	-0.007008288
63	0xbd004ea5	-0.031325
64	0x3ccfad9c	0.025351338
65	0xb845e000	-4.7177076e-05
66	0xbbe19e38	-0.006885316
67	0x3ccfd52e	0.025370207
68	0x3aef7520	0.0018269159
69	0xba660600	-0.0008774698
70	0xbcdb7485	-0.02678896
71	0x3c66d09c	0.014087822
72	0xbbb2ce9c	-0.0054567587
73	0xbd10d99c	-0.03536378
74	0x3c12b1c4	0.008953515
75	0x3ca6f858	0.020382091
76	0xbc2e6dc0	-0.010646284
77	0x3cb8d148	0.02256073
78	0x3cbf5fde	0.023361143
79	0x3cee4636	0.029086214
80	0xbc28527c	-0.010273572
81	0xbc77b9f8	-0.015120022
82	0x3c29d460	0.010365576
83	0xbd0362fd	-0.032076824
84	0xbbb71030	-0.0055866465
85	0x3d03e283	0.03219844
86	0xbcbd235a	-0.023088146
87	0xbc7b8b1c	-0.0153529905
88	0xbcac2265	-0.021012494
89	0x3ccad7d0	0.02476111
90	0x3c10dd1c	0.008841779
91	0x3c3e68e4	0.011621688
92	0x3cb13fae	0.02163681
93	0x3d0d2de5	0.034467597
94	0xbd1006df	-0.035162803
95	0xbc90d463	-0.017679399
96	0x3d11d43f	0.035602804
97	0x3c8224ea	0.015886743
98	0xbc9193f0	-0.017770737
99	0x3c730c34	0.014834452
100	0xbccaf3d0	-0.024774462
101	0x3cf61bfa	0.030042637
102	0xbc0f05b8	-0.008729391
103	0xbb694100	-0.0035591722
104	0xbc15974e	-0.009130312
105	0xbcfb4555	-0.030672709
106	0xbccaf83c	-0.02477657
107	0xbcdbc615	-0.026827851
108	0x3c9b905c	0.018989734
109	0x3cf4d956	0.02988879
110	0x3ceb9a22	0.02876002
111	0x3cd049ba	0.02542578
112	0x3cc6f718	0.024287745
113	0xbc59051c	-0.013245847
114	0xbcd2727a	-0.025689352
115	0xbc5c2ae0	-0.013437957
116	0xbc137640	-0.009000361
117	0x3cd2fe6e	0.025756087
118	0xbd0ca41c	-0.034336194
119	0xbd072e9e	-0.033003442
120	0x3d0872a3	0.03331245
121	0xbc6f0b9c	-0.01459017
122	0x3c51c478	0.012803189
123	0x3c108118	0.008819841
124	0xbcf1e021	-0.029525818
125	0x3cfc0b06	0.030766975
126	0xbccfbd9a	-0.025358964
127	0x3c911254	0.017708935
128	0xbcf7dd18	-0.030256793
129	0xbc0f4252	-0.008743839
130	0x3ccb010e	0.024780776
131	0xbd0b2b64	-0.033976927
132	0xbc056084	-0.008140687
133	0x3cc6bdfa	0.02426051
134	0xbca29a1c	-0.019848876
135	0x3ca1d5a8	0.0197552
136	0x3c86da20	0.016461432
137	0x3b2db8d0	0.0026507862
138	0xbca43a5e	-0.020047363
139	0xbb167d90	-0.0022963025
140	0x3c87ba70	0.016568393
141	0xbc898897	-0.016788764
142	0x3b3974f0	0.002829846
143	0x3cbf334a	0.023339886
144	0x3bd7e488	0.0065885223
145	0xbca1592a	-0.019695837
146	0x3cb8084a	0.02246489
147	0x3c289524	0.010289464
148	0x3beebe30	0.0072858557
149	0x3bd57428	0.006514091
150	0xbc4d80ae	-0.012542887
151	0xbbd451b0	-0.0064794645
152	0xbc96ab40	-0.018392205
153	0xbce4b16a	-0.027916629
154	0xbcb94c7a	-0.022619475
155	0x3c6f9318	0.014622472
156	0xbbbf2ed4	-0.00583444
157	0xbbb37b80	-0.005477369
158	0x3ca5b406	0.020227443
159	0x3bf6f7f8	0.0075368844
160	0xbd0fc3f2	-0.035098977
161	0x3ac9f9a0	0.0015409477
162	0x3ccfb90a	0.025356788
163	0xbca58745	-0.020206103
164	0x3d0583ab	0.03259627
165	0x3bf6ed08	0.0075355805
166	0xbd0e807d	-0.034790505
167	0xbd010b67	-0.031505015
168	0xbcb7eb60	-0.022451103
169	0xbba8f524	-0.005156176
170	0xba8304a0	-0.0009995885
171	0x3cae5cae	0.021284427
172	0x3cfc388e	0.030788686
173	0x3ce644e6	0.028109025
174	0xbbebb2a4	-0.0071929265
175	0x3aca7ae0	0.0015447997
176	0xbc1290e0	-0.008945674
177	0xbccc69e3	-0.024952834
178	0xbc1038e4	-0.008802626
179	0xbc8f8f13	-0.017524278
180	0xbbaf8340	-0.0053562224
181	0xbc4b66ae	-0.012414617
182	0xbd069e64	-0.032865897
183	0xbcc8b2fe	-0.024499413
184	0x3cf93b56	0.030423801
185	0x3caa55ae	0.020792808
186	0xbd07cbb6	-0.03315326
187	0x3cae8206	0.021302234
188	0xbc86df0c	-0.016463779
189	0x3ccb6a1e	0.024830874
190	0x3d0d659f	0.03452074
191	0xbc2c10ca	-0.01050205
192	0xbce6e7fc	-0.02818679
193	0x3ca8c05a	0.020599533
194	0xbd0eaa84	-0.034830585
195	0x3d0c3d67	0.034238245
196	0x3c9fe0fe	0.019516464
197	0x3c9607de	0.018314298
198	0xbcd34770	-0.0257909
199	0x3cf490d6	0.02985422
200	0xbc1902ee	-0.009339077
201	0x3bb12470	0.005405955
202	0x3c62dc88	0.013846524
203	0xbc4f3418	-0.012646697
204	0x3c299360	0.010350078
205	0xbc6b5218	-0.014362834
206	0x3cd13c0a	0.025541324
207	0xbcffd451	-0.03122917
208	0xbcd2f39c	-0.025750928
209	0xba89fce0	-0.0010527633
210	0xbc7d3b14	-0.01545598
211	0x3c92d21e	0.017922457
212	0x3cda7b52	0.026670132
213	0x3cc8f34e	0.02453008
214	0xbc99b1d0	-0.018761545
215	0x3ac67120	0.0015139915
216	0xbd09070f	-0.033453997
217	0x3b46df90	0.0030345656
218	0xbc42f980	-0.011900306
219	0xbc8cb175	-0.017174462
220	0xbc21668a	-0.009851107
221	0x3b2d9290	0.0026485063
222	0xbd0ecf52	-0.034865685
223	0xbd032b6b	-0.03202383
224	0x3cc654aa	0.024210293
225	0x3c1d99a0	0.009619147
226	0xbbdcc01c	-0.0067367684
227	0x3c8301c4	0.015992053
228	0xbba6afa4	-0.005086856
229	0x3d006fcf	0.03135663
230	0xba2ac840	-0.0006514825
231	0xbd05ebcc	-0.032695577
232	0x3d0cd4df	0.034382697
233	0x3cf77e02	0.030211452
234	0xbc9f1843	-0.019420749
235	0xbc0c0200	-0.008545399
236	0x3b9fd328	0.0048774667
237	0x3c19225c	0.009346571
238	0x3bc57e70	0.0060270354
239	0x3d03646f	0.032078203
240	0xbb1472f0	-0.0022651516
241	0x3b107bd0	0.0022046454
242	0xbb8c6e80	-0.0042856336
243	0x3b81caf0	0.0039609596
244	0xbc2feb4a	-0.01073725
245	0xbce0faba	-0.027463306
246	0xbb0bfc80	-0.0021360219
247	0xbbf04578	-0.0073325
248	0xbc5a5cf2	-0.013327824
249	0xbd10c377	-0.03534266
250	0x3c816122	0.015793387
251	0x3cc2820a	0.023743648
252	0x3d01e897	0.031715956
253	0x3be27010	0.0069103315
254	0xbbb467c0	-0.005505532
255	0xbce0ae20	-0.02742678

_layer.bias f4 [10]
0	0x3cd5d5ce	0.026102927
1	0xbbab3880	-0.005225241
2	0x3b42df50	0.0029735155
3	0xbb9c4f30	-0.004770182
4	0xbcefb885	-0.02926279
5	0xba769000	-0.0009405613
6	0xbc040a7c	-0.00805914
7	0x3cee64d6	0.029100817
8	0xbc605fdc	-0.01369473
9	0x3d0a7a71	0.033808175
