checkpoints/training/models/Linear.pt (torch_old, 31950 bytes, 2 tensors)

_layer.weight f4 [10, 784]
000000 ed 9e 1b 3c 76 7e b9 bb 8e a9 bf bb de 44 37 ba
       0.00949834 -0.0056608273 -0.00584907 -0.0006991158
000010 bf 33 8f bc 85 98 93 ba 9e 3c 6e 3a 76 ce 19 bc
       -0.01748073 -0.0011260664 0.0009088012 -0.009387603
000020 33 92 c1 3c 87 7b c8 3a f2 b6 45 bc 39 a3 f8 bc
       0.023629284 0.0015295603 -0.012067543 -0.030351268
000030 06 78 52 3c 79 67 e1 bc 96 89 90 bb 13 c9 fa 3c
       0.012845999 -0.02751516 -0.004410933 0.030613458
000040 a3 20 07 3c 1a 61 9f bb cb db cb 3c db 0b 6f bc
       0.008247527 -0.0048638703 0.024885079 -0.014590229
000050 e3 dc ff bc d3 3b 9a 3c 16 df 0d bc 70 3f 0f 3d
       -0.031233257 0.018827355 -0.008659145 0.034972608
000060 7f 1b bd bc e8 0b 48 bc 4e 8e 1e bc d9 ee ee bc
       -0.0230844 -0.01220987 -0.009677483 -0.029166626
000070 08 6f e0 3b d7 e2 ed bc a7 15 ca 3c d5 3d ae bc
       0.0068491735 -0.02903883 0.024668528 -0.021269718
000080 a5 64 08 3d bb 05 4d 3c 6f 80 2c 3c 95 86 83 bc
       0.033299107 0.012513573 0.010528668 -0.016055385
000090 88 c3 07 3a d5 69 7d 3b 96 70 e2 3c 16 9a 75 3b
       0.0005178978 0.0038667817 0.027641576 0.0037475876
0000a0 74 f8 0f 3d 05 33 e1 bc b9 d3 3a 3c 10 99 09 bd
       0.035149053 -0.027490148 0.011403018 -0.033593237
0000b0 5f c6 b0 3b 26 2b 1a bb aa 9a d5 bc 21 25 b3 bb
       0.0053947414 -0.0023524254 -0.026074726 -0.0054670726
0000c0 2f fb fe 3b 02 d1 10 3c 8e 5a 05 3d 07 72 6b 3c
       0.0077814083 0.008838894 0.032557063 0.014370448
0000d0 8a 39 a4 bb 0b 19 e0 3c 61 dd c5 3c e4 02 0f bc
       -0.005011742 0.027355691 0.024153413 -0.0087287165
0000e0 20 2f 4d bb 52 96 d5 bb 18 fa 47 3b 4c 33 c2 3c
       -0.0031308606 -0.0065181637 0.0030514058 0.0237061
0000f0 6c 01 30 ba bd d5 d2 bc 01 cd ce 3c 7a e5 65 3b
       -0.0006714079 -0.025736684 0.025244238 0.0035079406
000100 23 e4 5e bb 63 4a c3 ba 82 4b 54 bc 21 ce 82 3c
       -0.0034010492 -0.0014899488 -0.012957456 0.01596743
000110 a6 52 c4 bc fe 85 e3 3b c7 bb 65 3b 9e 84 2c bd
       -0.023965191 0.0069434633 0.003505455 -0.04211866
000120 ff c2 ef bc 7d f8 bc bc f3 f8 62 bb 92 f9 37 3b
       -0.029267786 -0.023067707 -0.0034633249 0.002807234
000130 9c 86 64 3c ec 24 16 3b f8 25 10 bd 92 d3 0c bd
       0.013948109 0.002291019 -0.03519246 -0.034381457
000140 c4 2c db bc 00 1b 32 bc 89 af 88 3c ab b9 a5 bc
       -0.026754744 -0.010870695 0.016685264 -0.020230135
000150 1b 45 d2 3c 24 b3 60 3c d1 a3 80 bc 85 d7 b9 bc
       0.025667718 0.013714585 -0.015703114 -0.022685776
000160 fb f3 cc 3c 1f 6c 16 bd fa 45 99 bc 89 69 01 bd
       0.025018683 -0.036724206 -0.018710125 -0.031594787
000170 14 97 89 ba 1f 94 77 3b 0e ca 82 3c 9d 16 14 bd
       -0.0010497295 0.0037777496 0.015965488 -0.03615438
000180 80 e8 2b bd c4 88 82 3c aa 6d ad bc fd 36 3c bd
       -0.041969776 0.015934356 -0.021170456 -0.04595088
000190 77 c5 0f bd 5e 3f 60 bd 8c 9d 86 bd 6d 1d 38 bd
       -0.035100427 -0.05474793 -0.065730184 -0.044949938
0001a0 2b ee 41 bd a6 ed 79 bd f3 b4 cf bb 33 e3 28 bd
       -0.047346275 -0.061017655 -0.0063387095 -0.0412323
0001b0 ac 79 d4 bc 23 9f 02 bd c7 2a 12 bd da d9 c9 bb
       -0.025936924 -0.031890046 -0.035685327 -0.006160003
0001c0 04 13 69 3c a7 2f 3a bc 7b 33 14 bc ff 22 5f 3c
       0.014225725 -0.0113639 -0.009045477 0.013619184
0001d0 8e b1 bd bc 5e fc 59 3b 22 58 a5 bc a0 16 a8 3c
       -0.023155954 0.0033261995 -0.020183627 0.020518601
0001e0 4e 19 fb ba c8 0c 39 bb 10 11 49 bc 6d 9d 6f bc
       -0.0019157322 -0.0028236378 -0.012272134 -0.014624936
0001f0 ee 97 c3 bc f3 ad c5 3b d9 94 88 3c ef b1 9f 3c
       -0.023876157 0.0060326993 0.016672539 0.019494025
000200 98 95 11 bd 7d 32 0b bc 63 f5 a0 bc 60 c4 65 bd
       -0.035543054 -0.008495924 -0.01964826 -0.05609548
000210 20 24 c1 bc 0a 1e 1c bd e3 85 2e bd 3c 54 22 bc
       -0.023576796 -0.038114585 -0.042608153 -0.009907778
000220 76 4b 89 3c 13 d8 31 3c 04 42 9e bc 84 af 0d 3c
       0.016759615 0.010854739 -0.019318588 0.008647803
000230 bc 4c 16 3a cc 0f 02 bd e7 eb 72 bc 86 d3 50 bc
       0.000573348 -0.031753346 -0.014826751 -0.012745744
000240 98 ae 4a bc 80 a6 39 bd 18 f9 93 3c 80 a2 7d bd
       -0.012370728 -0.045324802 0.018063113 -0.06192255
000250 7c b9 fd bb b0 8c 8d bd eb 5b bf bc bf 69 95 3b
       -0.0077430587 -0.069116 -0.02335926 0.004559725
000260 5b 1e 13 3d 75 19 85 3d bd 6c df 3d 41 a1 8d 3d
       0.03591762 0.06498996 0.10909412 0.06915522
000270 5e 0e e9 3d 78 e8 71 3d b7 e3 ad 3d d7 37 de 3c
       0.113796934 0.05905959 0.08490699 0.027126236
000280 b6 24 c5 bc 5f 92 24 bd 34 bb db ba 20 ad d4 bc
       -0.024065357 -0.040178653 -0.0016764165 -0.025961459
000290 13 1b 21 bd e4 22 b9 bc ef 62 8d bc ae 53 09 3d
       -0.03933246 -0.022599645 -0.01725909 0.03352707
0002a0 42 cf 11 3b 65 ae 0e bd e0 81 de 3c b4 e5 37 3b
       0.002224878 -0.034834284 0.027161539 0.0028060498
0002b0 d2 7a bd 3c 62 8a 94 bc 85 d8 47 bc 93 41 bf bc
       0.023129854 -0.018132392 -0.012197618 -0.023346698
0002c0 0a cf 54 bc 7d a3 6b bd 7d f7 a1 3c 7a 10 01 bb
       -0.012988815 -0.05752896 0.019771332 -0.0019693659
0002d0 31 95 89 3d 7f e3 a1 3d 3f 80 68 3d b0 70 b9 3d
       0.06717909 0.079047196 0.05676293 0.090546966
0002e0 4d c5 99 3d ae 94 d8 3d 57 20 83 3d 48 06 93 3d
       0.07508335 0.105752334 0.06402653 0.071789324
0002f0 22 99 84 3d c0 d4 7b 3d f4 eb 59 3c 01 34 5b 3c
       0.0647452 0.06148219 0.0133008845 0.013379098
000300 69 b9 83 bd 0f bf 89 bc c0 8f e4 3b 63 c6 7a 3c
       -0.064318486 -0.016814737 0.006975144 0.015306088
000310 cf 77 bf 3c b0 3f ba bc 2c 24 f8 bc 7f e2 da 3c
       0.023372559 -0.022735447 -0.030290686 0.02671933
000320 80 a4 36 bd bb 1c 10 bb 8e 7b 27 bd 4d 1a 24 bc
       -0.044590473 -0.002198978 -0.040889315 -0.010016036
000330 7a 85 d4 bc 46 cd b5 bc ee da 2b bc 4e 82 86 3c
       -0.025942553 -0.022192609 -0.010489209 0.016419556
000340 e2 14 e9 3c 5b 60 11 3d 95 9b 83 3c be 00 a0 3d
       0.02845234 0.035492282 0.016065398 0.078126416
000350 dc 14 c4 3d 23 44 0a 3e 4b a4 ae 3d bb 03 ca 3d
       0.09574291 0.13502555 0.0852743 0.09863993
000360 61 e0 b8 3c 5f 1c 21 3d ff 09 87 3d 24 77 24 3b
       0.02256793 0.039333697 0.065937035 0.0025095427
000370 7f 06 81 bc f3 34 e1 bc c9 73 f5 bc 31 33 32 bc
       -0.015750168 -0.027491068 -0.029962437 -0.010876463
000380 e6 92 00 bd aa 08 0b bc 11 b4 0e 3d f9 bc ed 39
       -0.031390093 -0.008485952 0.034839693 0.00045344958
000390 23 cc b6 bb 4f 5b b5 bc 28 a4 80 bc 8d 9c 78 bd
       -0.005578534 -0.022138266 -0.015703276 -0.060696173
0003a0 c7 97 88 bd 9f b9 26 bc 1a 98 cc 3c 81 4d 07 3d
       -0.06669574 -0.010176091 0.024974871 0.033032898
0003b0 f4 0f 87 3d 41 a9 25 3d 5c 6c 46 3d 5b 30 7e 3d
       0.0659484 0.040444616 0.048443183 0.062057834
0003c0 89 6c 0e 3e 24 e4 e8 3d 3d a8 c9 3d 5c 06 a7 3d
       0.1390859 0.11371639 0.09846542 0.0815551
0003d0 d6 81 ad ba 82 bf 1b 3d 34 32 8f 3d 8b c9 3c 3d
       -0.0013237547 0.038024433 0.06991997 0.046090644
0003e0 57 77 49 bc 86 0d 7f bd 9f 5d fb 3b f9 43 a1 bc
       -0.012296519 -0.062268756 0.0076710726 -0.019685732
0003f0 db 4f 85 3c aa 47 83 3b 8d 9f 48 bb 63 79 97 bc
       0.01627343 0.0040063458 -0.0030612678 -0.018490499

_layer.bias f4 [10]
000000 d1 7b ce 3c b5 8f 24 3c 04 26 29 3d 96 9f c3 3c
       0.025205525 0.010044028 0.04129602 0.023879807
000010 a6 23 96 bc 8b 64 1c 3d 4b 5c d8 bc ab d5 94 ba
       -0.018327545 0.038181823 -0.026411196 -0.0011355182
000020 3f 44 cf bb 4e 80 6c 3c
       -0.0063252742 0.014434887
