checkpoints/trainer/models/Linear.pt (torch_old, 31950 bytes, 2 tensors)

_layer.weight f4 [10, 784]
0.01897699 0.001629144 -0.029637411 -0.02675108 0.032604072 -0.026463544 -0.013054218 0.023340072
-0.011294553 0.005475782 -0.034040626 -0.032468285 0.013006273 -0.012214171 -0.0029463915 -0.015660165
-0.02536403 0.0038663223 -0.031675383 -0.0112275835 -0.0070721246 -0.011950357 0.028781164 0.014096785
-0.023403555 -0.011098087 -0.01792962 -0.010713629 0.006501112 -0.028626898 -0.018593168 -0.02496212
0.0124631245 -0.04948033 -0.023443684 -0.046067774 0.01201706 -0.04691293 -0.054488245 -0.049455598
-0.040523592 -0.07172787 -0.013955221 -0.049706664 -0.0055178893 -0.036354695 -0.005962517 -0.049527597
-0.005325893 -0.022399 0.007316448 0.01716751 -0.002373565 0.0024250373 -0.031214422 -0.01817369
-0.032434035 0.03261533 -0.026609246 0.025160104 5.5893535e-05 -0.012462154 -0.05896843 -0.034117114
-0.014545516 -0.079132214 -0.086012155 -0.08355351 -0.116379544 -0.09934772 -0.12910064 -0.13830705
-0.11367672 -0.1080338 -0.09392844 -0.06662077 -0.10446631 -0.035915196 -0.049600374 -0.07163292
-0.020247366 0.0094617745 0.009277333 0.020558652 -0.010379201 0.0061241277 -0.010541622 0.011966361
-0.017033804 -0.06457617 -0.06820396 -0.051826794 -0.046912905 -0.05616237 -0.0755496 -0.10377997
-0.10132845 -0.06905053 -0.061379816 -0.09430672 -0.10910296 -0.09223662 -0.1221236 -0.046577957
-0.13268562 -0.0953879 -0.06928079 -0.063945234 -0.015625058 -0.034232624 0.023908485 -0.01721247
0.008738395 -0.011442436 0.01912194 0.022481833 -0.008908606 -0.06171842 -0.07190217 -0.103799045
-0.09543262 -0.045260765 -0.0778868 -0.029915312 -0.051659927 0.0014801567 0.02301157 -0.0027136023
0.022985859 -0.016672052 0.020076683 0.008320031 -0.04419774 -0.023330549 -0.047127374 -0.056247883
-0.07915981 -0.0269053 -0.0032876192 0.0073357457 -0.026856318 -0.01653633 -0.03419826 0.027356973
-0.07433916 -0.08113551 -0.052419636 -0.07284931 -0.06971397 -0.062360197 -0.046715707 -0.04135401
0.030124133 0.0011501743 0.07701967 0.0680422 0.04124506 0.036921054 0.06172992 0.0019697412
-0.013749055 -0.00862045 -0.045081075 -0.099127874 -0.071609296 -0.09720825 -0.013950634 -0.01829647
-0.011485308 -0.031459846 -0.0091114845 -0.01971266 -0.06128728 -0.043658044 -0.07131894 -0.042269647
-0.099993914 -0.081793696 -0.08273903 -0.031479057 -0.015598875 0.0075733834 0.024710767 0.05907932
0.03346099 0.053878326 0.08688362 0.035025198 0.05376637 0.032501377 0.0035214548 -0.10189621
-0.14166288 -0.11818758 -0.03843643 -0.04103733 -0.010052362 -0.04154647 -0.03715057 -0.020869402
-0.10487347 -0.06894599 -0.049207594 -0.11015735 -0.1028511 -0.039013032 -0.05393327 -0.019899957
-0.030385336 0.038558397 -0.0014925409 0.052699637 0.03362018 0.08706464 0.077142894 0.049441468
0.02430602 0.008273426 -0.0026299073 -0.021993602 -0.13580152 -0.11144446 -0.12051284 -0.011225104
0.007592432 -0.019375345 -0.038958196 -0.059505817 -0.095178925 -0.079889745 -0.103222005 -0.044864424
-0.08834778 -0.029261049 -0.030403113 -0.0063058003 -0.013154034 0.035522625 0.015444053 0.063284166
0.06540306 0.036333203 0.07201291 0.036064934 0.03786027 0.004990063 0.020635951 0.036062233
-0.082416676 -0.12364795 -0.10043384 -0.05642339 0.019629836 -0.005397082 -0.034868557 -0.04557179
00000000: a275 9b3c 0089 d53a 28ca f2bc 1525 dbbc
00000010: d98b 053d 13ca d8bc 5ce1 55bc ae33 bf3c
00000020: ca0c 39bc 306e b33b 2f6e 0bbd 77fd 04bd
00000030: 4318 553c f21d 48bc 3f18 41bb bf49 80bc
00000040: 3ac8 cfbc 2062 7d3b 0cbe 01bd e6f3 37bc
00000050: 48bd e7bb 6ecb 43bc 7ac6 eb3c 34f6 663c
00000060: d0b8 bfbc c0d4 35bc 23e1 92bc 3888 2fbc
00000070: 4807 d53b f582 eabc b350 98bc 5c7d ccbc
00000080: 2232 4c3c e3ab 4abd f80c c0bc 90b1 3cbd
00000090: 34e3 443c c627 40bd 112f 5fbd f491 4abd
000000a0: 11fc 25bd 10e6 92bd 70a4 64bc 3799 4bbd
000000b0: 69cf b4bb a9e8 14bd 3861 c3bb 73dd 4abd
000000c0: d484 aebb 1c7e b7bc d0be ef3b e1a2 8c3c
000000d0: d08d 1bbb 60ed 1e3b 63b5 ffbc fee0 94bc
000000e0: 8dd9 04bd a797 053d a2fb d9bc 901c ce3c
000000f0: 3a6f 6a38 102e 4cbc e188 71bd 63be 0bbd
00000100: 5150 6ebc 1210 a2bd 2427 b0bd 1a1e abbd
00000110: 6658 eebd d176 cbbd f532 04be 5da0 0dbe
00000120: 57cf e8bd d340 ddbd 8e5d c0bd 7870 88bd
00000130: 6ff2 d5bd d01b 13bd c329 4bbd 48b4 92bd
00000140: cedd a5bc 8f05 1b3c f4ff 173c 9e6a a83c
00000150: 860d 2abc e8ac c83b c4b6 2cbc 8e0e 443c
00000160: 7a8a 8bbc 8340 84bd 85ae 8bbd 5548 54bd
00000170: bf27 40bd 830a 66bd c0b9 9abd 988a d4bd
00000180: 4a85 cfbd 5d6a 8dbd 6769 7bbd e223 c1bd
00000190: 5f71 dfbd 8ee6 bcbd f01b fabd 87c8 3ebd
000001a0: bdde 07be bb5a c3bd 16e3 8dbd b8f5 82bd
000001b0: 1f00 80bc 8237 0cbd badb c33c 2a01 8dbc
000001c0: 7c2b 0f3c 0e79 3bbc 9da5 9c3c d22b b83c
000001d0: 67f5 11bc 74cc 7cbd 7241 93bd 9894 d4bd
000001e0: 2d72 c3bd 5a63 39bd 1d83 9fbd f510 f5bc
000001f0: 5c99 53bd d101 c23a c382 bc3c b1d6 31bb
00000200: d74c bc3c d493 88bc db77 a43c bd50 083c
00000210: b008 35bd b51f bfbc a208 41bd 2e64 66bd
00000220: 8a1e a2bd 8168 dcbc 1975 57bb b260 f03b
00000230: c801 dcbc 3377 87bc 7a13 0cbd bb1b e03c
00000240: 213f 98bd 602a a6bd f9b5 56bd 0532 95bd
00000250: 33c6 8ebd 686d 7fbd f858 3fbd d362 29bd
00000260: e3c6 f63c 72c1 963a 7dbc 9d3d b559 8b3d
00000270: 94f0 283d 883a 173d 83d8 7c3d c616 013b
00000280: b743 61bc ca3c 0dbc efa6 38bd 8e03 cbbd
00000290: e5a7 92bd 1e15 c7bd 3391 64bc 7be2 95bc
000002a0: e02c 3cbc 0adc 00bd 5648 15bc 727c a1bc
000002b0: 5f08 7bbd c7d2 32bd aa0f 92bd f022 2dbd
000002c0: 9cc9 ccbd 7483 a7bd 1573 a9bd 2ff0 00bd
000002d0: 6c92 7fbc 252a f83b 3c6e ca3c 28fd 713d
000002e0: 640e 093d 85af 5c3d 0af0 b13d 9576 0f3d
000002f0: 203a 5c3d 2a20 053d 35c8 663b f6ae d0bd
00000300: 1310 11be 540c f2bd 856f 1dbd c216 28bd
00000310: aab2 24bc a22c 2abd 322b 18bd 4ff6 aabc
00000320: e7c7 d6bd 8e33 8dbd e78d 49bd 2d9a e1bd
00000330: 99a3 d2bd 21cc 1fbd 22e9 5cbd 3c05 a3bc
00000340: abea f8bc 69ef 1d3d 5da1 c3ba 93db 573d
00000350: 50b5 093d f24e b23d 18fd 9d3d 2383 4a3d
00000360: 6b1d c73c 448d 073c 865a 2cbb ed2b b4bc
00000370: 8e0f 0bbe fe3c e4bd 70cf f6bd 80e9 37bc
00000380: f0c9 f83b 0bb9 9ebc a192 1fbd 5fbc 73bd
00000390: 2bed c2bd 3c9d a3bd 0f66 d3bd c2c3 37bd
000003a0: aeef b4bd deb4 efbc f30f f9bc e3a0 cebb
000003b0: 0484 57bc 2c80 113d 0e09 7d3c 219b 813d
000003c0: 0af2 853d 20d2 143d 817b 933d d3b8 133d
000003d0: 5f13 1b3d af83 a33b ba0c a93c feb5 133d
000003e0: 13ca a8bd 233b fdbd 42b0 cdbd 361c 67bd
000003f0: c0ce a03c 01da b0bb 55d2 0ebd 7ca9 3abd

_layer.bias f4 [10]
-0.0691709 0.10268276 -0.014646174 -0.057808407 0.02958197 0.04411384 -0.030787803 0.05709224
-0.105091825 -0.023053253
00000000: 79a9 8dbd 574b d23d 82f6 6fbc 82c8 6cbd
00000010: e355 f23c b7b0 343d b436 fcbc 8dd9 693d
00000020: 623a d7bd 2dda bcbc
